generator/model.pt (torch, 22193 bytes, 42 tensors)

encoder.fc_mu.0.weight f4 [14, 14]
0.1912714 0.02095394 0.19222772 -0.12880363 0.18132204 -0.0587737 0.29487008 -0.03724693
0.22510204 0.031872228 0.19613963 0.020570442 -0.005985699 -0.041216224 0.19903463 -0.095356956
0.3310181 0.013360337 0.14296389 -0.08092577 0.15260299 -0.003758779 0.13005757 -0.050099596
0.0494973 -0.049684063 -0.04951396 0.033854686 -0.0030520745 0.23156442 0.0543508 0.13567132
-0.26748517 -0.18864176 -0.06754335 -0.22525594 -0.1495046 0.03837626 -0.23305693 -0.23049746
-0.041046247 0.2459976 -0.15144442 -0.2540105 -0.1266594 0.15422197 -0.26455846 -0.20240548
0.035316356 -0.24221289 -0.15288907 0.17277731 0.11195338 0.20874247 0.006189861 -0.016996589
0.13359645 -0.12550461 -0.10294601 -0.14507094 -0.07449301 -0.16226925 -0.20538834 -0.16765888
-0.011106908 -0.13385464 -0.24854107 0.08190617 -0.25119784 0.08133544 -0.10950898 -0.18478401
0.065490715 -0.21807416 0.056794118 0.18601252 -0.22915223 0.09528882 0.0021748985 -0.17094605
-0.14778733 0.082514636 0.042889558 0.12759393 -0.1524358 -0.25042254 0.1598542 -0.2458788
0.181876 -0.014301053 0.092420675 0.11980609 -0.23567958 0.123961754 -0.1457317 0.074756905
-0.04046906 0.041971076 -0.10910159 -0.0148480395 0.09727076 0.102942854 -0.21658468 0.17121193
0.15834822 -0.17528762 0.03729163 -0.036851436 -0.20977847 0.15044785 -0.049613085 -0.044324085
0.068423346 0.22020797 0.06579553 0.34165138 0.10287164 0.2416979 0.050419904 0.28864628
0.05402241 0.23497088 0.023833869 0.1600886 0.07941783 0.042737138 -0.11902915 0.13647921
-0.26222032 -0.12089219 -0.040974658 -0.07448587 -0.030354932 0.20309609 -0.21335317 -0.011038944
-0.25568438 0.079979375 0.052944597 -0.2189903 0.2851503 -0.118209 0.19890988 -0.07500326
0.28236246 -0.010198363 0.06223851 -0.13169141 0.13145307 -0.0606576 0.19545981 0.008715178
0.017336743 0.0044616 0.16999677 0.017061241 0.06477589 -0.047655135 0.22182292 -0.07031832
0.3414783 0.032035016 0.24657026 -0.014074299 0.1592108 0.023282234 0.08466029 0.00238389
0.12208307 -0.029662203 -0.03801461 -0.09285762 0.12416336 0.18653268 0.09374223 -0.27743313
-0.20745903 -0.023102818 -0.20233686 -0.04319744 0.14889963 -0.15046208 -0.14805189 0.034561425
-0.15558454 0.0701602 -0.13251135 0.016419953 -0.1465711 0.064995766 -0.12331092 0.027999615
-0.10081519 0.023350973 -0.003674242 0.02000462
00000000: a6dc 433e 99a7 ab3c 58d7 443e 19e5 03be
00000010: 7cac 393e b1bc 70bd 36f9 963e 3d90 18bd
00000020: 2681 663e 748c 023d d4d8 483e 5883 a83c
00000030: af23 c4bb 58d2 28bd bccf 4b3e 824a c3bd
00000040: 347b a93e 51e5 5a3c 2065 123e 69bc a5bd
00000050: f543 1c3e d955 76bb d02d 053e 3c35 4dbd
00000060: aebd 4a3d 8481 4bbd 26cf 4abd 36ab 0a3d
00000070: 5005 48bb 391f 6d3e f29e 5e3d 6ced 0a3e
00000080: d1f3 88be 4e2b 41be 2b54 8abd 7ea9 66be
00000090: bc17 19be 6d30 1d3d 7aa6 6ebe 8707 6cbe
000000a0: 1c20 28bd cbe6 7b3e 3f14 1bbe aa0d 82be
000000b0: 00b3 01be 5dec 1d3e 3574 87be 6243 4fbe
000000c0: e2a7 103d a806 78be f48e 1cbe 89ec 303e
000000d0: d047 e53d 96c0 553e 51d4 ca3b 6e3c 8bbc
000000e0: 82cd 083e 4884 00be 5cd5 d2bd 7a8d 14be
000000f0: cb8f 98bd e929 26be 5251 52be c5ae 2bbe
00000100: c0f9 35bc 3111 09be 8d81 7ebe 6cbe a73d
00000110: 019d 80be 3293 a63d 3e46 e0bd 0538 3dbe
00000120: ff1f 863d d54e 5fbe f3a0 683d 117a 3e3e
00000130: e2a6 6abe c926 c33d be88 0e3b 7b0c 2fbe
00000140: 9055 17be 6ffd a83d f6ac 2f3d fca7 023e
00000150: 2118 1cbe 6237 80be d2b0 233e a7c7 7bbe
00000160: b43d 3a3e f74e 6abc 0d47 bd3d e55c f53d
00000170: fd55 71be a9df fd3d b13a 15be 261a 993d
00000180: e3c2 25bd dde9 2b3d a870 dfbd 3145 73bc
00000190: e435 c73d b4d3 d23d 60c8 5dbe 2e52 2f3e
000001a0: 0926 223e 997e 33be 1cbf 183d 88f1 16bd
000001b0: 2bd0 56be 000f 1a3e 1737 4bbd 2c8d 35bd
000001c0: 8a21 8c3d 337e 613e cfbf 863d eeec ae3e
000001d0: 5eae d23d a87f 773e 1a85 4e3d 72c9 933e
000001e0: 9a46 5d3d 359c 703e 3f3f c33c 44ee 233e
000001f0: d1a5 a23d 230d 2f3d 8ec5 f3bd 35c1 0b3e
00000200: be41 86be 5396 f7bd 0bd5 27bd 0c8c 98bd
00000210: e8aa f8bc 6cf8 4f3e 4179 5abe b0dc 34bc
00000220: 10e9 82be 3acc a33d 6fdc 583d fe3e 60be
00000230: 38ff 913e 8f17 f2bd 08af 4b3e 4f9b 99bd
00000240: d091 903e 0917 27bc cfed 7e3d 1dda 06be
00000250: a29b 063e 1b74 78bd 9e26 483e 1bca 0e3c
00000260: c905 8e3c 9d32 923b a213 2e3e 04c4 8b3c
00000270: 39a9 843d 0832 43bd 8c25 633e 0d03 90bd
00000280: 3ed6 ae3e 2637 033d ea7c 7c3e e397 66bc
00000290: 2808 233e 62ba be3c 6062 ad3d 0a3b 1c3b
000002a0: b006 fa3d 26fe f2bc 35b5 1bbd 232c bebd
000002b0: 5c49 fe3d 6c02 3f3e edfb bf3d b70b 8ebe
000002c0: 2470 54be 1f42 bdbc 6531 4fbe cdef 30bd
000002d0: 2579 183e bb12 1abe ea9a 17be 4890 0d3d
000002e0: 8e51 1fbe 27b0 8f3d 0eb1 07be 2383 863c
000002f0: bc16 16be 801c 853d 708a fcbd 735f e53c
00000300: 3278 cebd 8a4a bf3c 8dcb 70bb bbe0 a33c

encoder.fc_mu.0.bias f4 [14]
0.1803437 -0.052006565 -0.10172682 -0.052043762 0.19339155 -0.12789947 -0.23007984 -0.24326418
-0.12385125 0.0479152 0.005816118 -0.11794706 -0.2647232 0.3062407
00000000: 05ac 383e d604 55bd 2756 d0bd d72b 55bd
00000010: 6f08 463e 14f8 02be 0d9a 6bbe 3f1a 79be
00000020: b9a5 fdbd bb42 443d 2295 be3b 3a8e f1bd
00000030: cd89 87be 95cb 9c3e

encoder.fc_mu.2.weight f4 [14]
1.0903571 0.9890258 0.99955857 1.0 0.8158534 0.9015503 0.96559 0.9704576
0.8949101 0.94426715 1.0597268 1.1461718 0.97024083 0.8965765
00000000: d290 8b3f cb30 7d3f 12e3 7f3f 0000 803f
00000010: c5db 503f 00cc 663f e830 773f e96f 783f
00000020: d418 653f 7ebb 713f 21a5 873f c2b5 923f
00000030: b461 783f 0a86 653f

encoder.fc_mu.2.bias f4 [14]
0.16158196 0.27738893 -0.038509157 0.015581115 -0.05535444 -0.0875107 0.050157644 0.040751394
0.46077216 -0.063209504 0.02606014 0.19752768 -0.019356662 -0.13873056
00000000: be75 253e ec05 8e3e c7bb 1dbd ef47 7f3c
00000010: 56bb 62bd cf38 b3bd 1a72 4d3d efea 263d
00000020: 54ea eb3e fc73 81bd 137c d53c b244 4a3e
00000030: dd91 9ebc 620f 0ebe

encoder.fc_mu.2.running_mean f4 [14]
0.82723045 0.41238633 6e-45 0.0 1.8876704e-05 6e-45 6e-45 6e-45
0.6824164 6e-45 0.52646345 0.5810434 6e-45 0.037771527
00000000: 60c5 533f 4d24 d33e 0400 0000 0000 0000
00000010: 6a59 9e37 0400 0000 0400 0000 0400 0000
00000020: d7b2 2e3f 0400 0000 4fc6 063f 43bf 143f
00000030: 0400 0000 51b6 1a3d

encoder.fc_mu.2.running_var f4 [14]
0.0509586 0.03311303 6e-45 6e-45 3.6027595e-07 6e-45 6e-45 6e-45
0.019055642 6e-45 0.041890074 0.048424438 6e-45 0.0032891247
00000000: f7b9 503d 87a1 073d 0400 0000 0400 0000
00000010: f36b c134 0400 0000 0400 0000 0400 0000
00000020: 941a 9c3c 0400 0000 ed94 2b3d b458 463d
00000030: 0400 0000 5b8e 573b

encoder.fc_mu.4.weight f4 [14, 14]
-0.1412472 -0.09843948 -0.21700874 0.41276312 -0.21266082 -0.232522 0.15873732 0.1813168
0.101135045 -0.23021273 -0.27132785 -0.012323259 -0.16089764 -0.30138418 -0.12976047 -0.18049487
-0.31483242 0.10549199 0.00736868 -0.05240437 0.107655294 -0.14868535 -0.15006879 -0.055787224
-0.15982857 -0.1357273 -0.17658548 0.062472146 -0.26111564 -0.09212056 0.34183174 0.32194817
0.01766508 0.22924685 -0.11691208 -0.13257606 0.07575571 0.028624589 -0.30814615 -0.26870656
0.20643541 -0.2066392 -0.22634809 -0.11091692 0.020190127 0.043267217 0.020369852 -0.13202468
-0.07124747 -0.0012423211 -0.1411034 0.074762814 -0.2157114 -0.11262721 0.042740144 0.008115697
-0.22959821 -0.18669938 0.12114006 0.039727446 -0.020820914 -0.15447086 0.17205326 0.15285464
-0.0789966 -0.13550837 -0.20349255 -0.1512264 0.1841728 0.020957494 -0.09430663 0.22960366
0.019348098 0.3025254 -0.087625794 -0.044484567 0.025444997 0.024931483 -0.0069576856 -0.01569976
-0.09023815 -0.24501903 0.21283273 -0.068872906 -0.25234205 0.03690893 -0.16705066 0.2718911
-0.1707396 -0.009304291 0.116732575 -0.17162837 -0.1582211 0.045639765 0.049729653 0.115744
0.12569062 -0.12924877 -0.20173636 0.15361188 0.020906905 0.09359896 -0.085466065 -0.1156004
-0.10960897 0.0064265653 -0.16502175 0.25329107 -0.0029613718 -0.32733753 0.26474744 0.16068873
-0.2543353 -0.04389948 -0.071421094 0.17293881 0.008583239 -0.015863372 -0.0062817684 -0.23046848
0.17802739 -0.046078593 -0.13462783 -0.24862713 0.0058596944 -0.12837155 -0.002901462 -0.27562284
-0.28990173 0.36526376 -0.17681955 -0.28087255 -0.016113319 0.072402135 -0.3429549 -0.20462368
-0.16775005 -0.35010445 0.100095876 0.17518395 -0.084440984 -0.10742076 -0.08818687 0.17845531
-0.06838937 0.11393157 -0.16616009 -0.28094894 -0.008746747 -0.14174508 -0.027239498 -0.06931546
0.07539154 -0.21173948 -0.15669785 -0.15286934 -0.0092424955 -0.2577411 -0.025545174 0.035650905
-0.19682282 -0.25849497 -0.03747938 -0.013105381 -0.13324428 -0.109027065 -0.28305817 -0.011200305
0.36768532 0.24223898 0.09642255 0.16748346 0.19461913 0.0659929 0.038551338 0.062200226
0.11522287 -0.003689813 0.24820226 0.18753058 0.11375151 -0.07030813 0.062404655 -0.26512703
0.24099764 -0.06682745 -0.007215436 0.25627616 -0.355988 0.09107539 -0.19860557 -0.12128522
-0.2825355 -0.26643315 0.15047349 -0.061642755
00000000: 1ba3 10be a39a c9bd 8a37 5ebe b055 d33e
00000010: c2c3 59be 3f1a 6ebe 098c 223e 1cab 393e
00000020: e41f cf3d e3bc 6bbe 7ceb 8abe 7fe7 49bc
00000030: 5ac2 24be 074f 9abe eedf 04be a6d3 38be
00000040: b731 a1be 2f0c d83d f874 f13b f7a5 56bd
00000050: 617a dc3d f940 18be a2ab 19be 2581 64bd
00000060: 1aaa 23be 19fc 0abe d3d2 34be cbe2 7f3d
00000070: f3b0 85be b4a9 bcbd 9204 af3e 64d6 a43e
00000080: 5cb6 903c b0bf 6a3e 9a6f efbd 05c2 07be
00000090: cf25 9b3d 1d7e ea3c 55c5 9dbe e893 89be
000000a0: ce63 533e 3a99 53be cbc7 67be 6928 e3bd
000000b0: c465 a53c f738 313d adde a63c 7a31 07be
000000c0: 32ea 91bd 61d5 a2ba 697d 10be 3f1d 993d
000000d0: 73e3 5cbe 18a9 e6bd 4a10 2f3d b3f7 043c
000000e0: cb1b 6bbe 1f2e 3fbe 4818 f83d 3fb9 223d
000000f0: 9f90 aabc 9c2d 1ebe bb2e 303e ed85 1c3e
00000100: f8c8 a1bd b5c2 0abe 5a60 50be 18db 1abe
00000110: cb97 3c3e 0daf ab3c d623 c1bd 391d 6b3e
00000120: e77f 9e3c 9ce4 9a3e 2775 b3bd 7335 36bd
00000130: 0772 d03c 1c3d cc3c 4cfd e3bb c89c 80bc
00000140: c7ce b8bd 45e6 7abe d3f0 593e 3d0d 8dbd
00000150: fa32 81be d12d 173d 540f 2bbe 4f35 8b3e
00000160: 5dd6 2ebe 0671 18bc 7d11 ef3d 59bf 2fbe
00000170: b604 22be c3f0 3a3d 52b1 4b3d 310b ed3d
00000180: 0bb5 003e ca59 04be fa93 4ebe 6f4c 1d3e
00000190: f544 ab3c d0b0 bf3d d508 afbd e7bf ecbd
000001a0: ab7a e0bd f095 d23b 76fb 28be 5eaf 813e
000001b0: 9313 42bb c998 a7be fa8c 873e 968b 243e
000001c0: 3d38 82be f1cf 33bd 3945 92bd df16 313e
000001d0: b7a0 0c3c e7f3 81bc 4bd7 cdbb eeff 6bbe
000001e0: d04c 363e e8bc 3cbd e1db 09be 1c98 7ebe
000001f0: ae02 c03b d573 03be 7426 3ebb 701e 8dbe
00000200: 006e 94be da03 bb3e 2f10 35be 87ce 8fbe
00000210: 1400 84bc 9247 943d c997 afbe df88 51be
00000220: abc6 2bbe e440 b3be 11ff cc3d 6c63 333e
00000230: 65ef acbd 6aff dbbd 519b b4bd fdbc 363e
00000240: ba0f 8cbd f454 e93d df25 2abe 8ad8 8fbe
00000250: 844e 0fbc 9f25 11be 5e25 dfbc 44f5 8dbd
00000260: e166 9a3d 3cd2 58be 6775 20be c889 1cbe
00000270: d66d 17bc a4f6 83be 1d44 d1bc af06 123d
00000280: ec8b 49be 7459 84be fa83 19bd f4b7 56bc
00000290: 3071 08be 9549 dfbd 00ed 90be 7c81 37bc
000002a0: 4041 bc3e 7f0d 783e 3079 c53d c980 2b3e
000002b0: 3d4a 473e 4927 873d 02e8 1d3d aac5 7e3d
000002c0: f8f9 eb3d cad0 71bb bc28 7e3e 0408 403e
000002d0: 8df6 e83d b5fd 8fbd 069c 7f3d bbbe 87be
000002e0: 16c8 763e d5dc 88bd 776f ecbb a136 833e
000002f0: 0f44 b6be bc85 ba3d 425f 4bbe 6364 f8bd
00000300: 7ea8 90be ed69 88be b915 1a3e 1d7d 7cbd

encoder.fc_mu.4.bias f4 [14]
-0.0370022 -0.077572875 -0.16910298 -0.047761075 -0.14555861 0.057315394 -0.101154774 0.08830163
0.24892148 -0.07676273 0.10104769 -0.044962075 -0.054498926 0.08121082
00000000: 9e8f 17bd 87de 9ebd 5529 2dbe 1ea1 43bd
00000010: 510d 15be 8cc3 6a3d 3c2a cfbd 7cd7 b43d
00000020: 46e5 7e3e c735 9dbd 17f2 ce3d 272a 38bd
00000030: 443a 5fbd dc51 a63d

encoder.fc_mu.6.weight f4 [14]
0.044273216 0.10337315 6.516832e-06 0.09082558 0.116161175 0.00983474 0.017734375 0.0032172785
0.020509133 0.07894526 0.021247389 0.085835904 0.070289105 0.014841816
00000000: d557 353d 4db5 d33d 29ab da36 c302 ba3d
00000010: e9e5 ed3d e421 213c ae47 913c fad8 523b
00000020: c502 a83c 0dae a13d 010f ae3c bcca af3d
00000030: bcf3 8f3d 172b 733c

encoder.fc_mu.6.bias f4 [14]
-0.00035532756 -0.011733361 -0.0012501434 -0.0054754503 -0.014487207 -0.0033724252 -0.0029538828 0.00024536988
0.0038217101 -0.0075196605 -0.0011472504 -0.009359679 0.0047137025 -0.0003050312
00000000: 424b bab9 483d 40bc dadb a3ba 686b b3bb
00000010: c05b 6dbc e803 5dbb ee95 41bb fda4 8039
00000020: a875 7a3b 7c67 f6bb 565f 96ba 5759 19bc
00000030: 6775 9a3b 98ec 9fb9

encoder.fc_mu.6.running_mean f4 [14]
0.1810879 0.24821015 0.23308569 0.26743004 0.27246973 0.14965615 0.012370916 0.2724286
0.3873621 0.38764483 0.11001887 0.1914741 0.6350329 0.31107628
00000000: 1b6f 393e cd2a 7e3e 04ae 6e3e 97ec 883e
00000010: 2781 8b3e 763f 193e 62af 4a3c c37b 8b3e
00000020: 5354 c63e 6279 c63e 9351 e13d c911 443e
00000030: 8491 223f 6445 9f3e

encoder.fc_mu.6.running_var f4 [14]
0.042792797 0.1609535 0.1008054 0.16939773 0.17906122 0.031700768 0.0020160836 0.19491868
0.15815875 0.42902002 0.015525129 0.08125439 0.48121566 0.20798144
00000000: 8047 2f3d ffd0 243e 1073 ce3d 9976 2d3e
00000010: d35b 373e aad8 013d 4520 043b c398 473e
00000020: 5ef4 213e 83a8 db3e 1c5d 7e3c b468 a63d
00000030: e661 f63e 16f9 543e

encoder.fc_mu.8.weight f4 [12, 14]
0.0012535553 -0.00037099572 0.0035612707 -0.0011003228 -0.0011645876 -0.006449936 0.000928755 0.0010404473
-0.0026245373 -0.00084681116 0.0005945523 -0.00043909854 -0.0027557916 0.0076283114 0.014065775 -0.0044203233
0.0009279235 -0.0044007245 -0.002597336 0.0048046815 -0.0060541113 -0.002160301 0.009005871 -0.0046075904
0.013992275 -0.004770288 -0.004391267 -0.0064924727 0.020165645 -0.006691011 0.0031094782 -0.007046103
-0.0064478707 -0.005458449 -0.012892782 -0.006063672 0.0070141004 -0.0074943993 0.026597379 -0.007363041
-0.009616345 -0.0064170994 -0.0063565136 0.0025988258 -0.0016429359 0.0019141699 0.0012886145 -0.00018833252
-0.0016472393 -0.003286742 -0.0025794685 0.0022616857 -0.0021014127 0.0021744359 0.0025935466 0.0007740221
0.0062512346 -0.0017442526 -0.0036493689 -0.0010755418 -0.00027980265 0.014171788 -0.0027322532 0.00035588274
0.007640032 -0.002071176 0.0032694393 -0.0009887314 -0.0030759552 -0.0070557506 0.00953789 -0.002913108
-0.0015883137 -0.0029911269 -0.0014394412 -0.003870405 -0.0066308444 -0.0061488356 0.0055015436 -0.00294086
0.014672908 -0.0034099934 -0.0033704475 -0.007154284 0.0067390045 -0.0039017962 -0.0051453155 -0.0030738334
-0.0035785516 -0.0018822387 -0.0024276315 0.0008737504 0.002268415 -0.0034919486 0.009424058 -0.0023172412
-0.005807867 -0.0021495288 0.001091852 0.00028716677 -0.009092968 -0.0014762419 -0.0003160652 0.0069749267
-0.0047221645 -0.0040491666 0.0017295274 -0.0011218531 0.0033858353 -0.0008727386 -0.000857629 -0.004571336
-0.012786169 0.0061910255 -0.007530155 0.0044806213 0.0063258745 0.0026463117 0.0017182798 0.0016368695
-0.0004969533 0.00698724 -0.0064689037 0.0032947317 0.009439063 -0.0023504253 -0.02096217 0.007893618
-0.0022684638 0.007874195 0.0073587806 -0.009710655 0.0103384 0.0042056465 -0.008271226 0.009715502
-0.023499187 0.007188566 0.013959223 0.0055313758 0.009593325 -0.0034381382 -0.011112602 -0.0017478833
-0.0035061543 0.0027816605 -0.00360153 -0.0053170696 0.0062278784 -0.0035607624 0.014932401 -0.0030860656
-0.0036394272 -0.010034252 0.0067837737 -0.0030431417 -0.00767901 -0.0033602556 -0.0037441135 -0.00973936
-0.0021604733 -0.0046127085 -0.0010392509 -0.003398528 0.0077903536 -0.002350078 -0.00432317 0.0009064181
00000000: 564e a43a 3482 c2b9 3564 693b b538 90ba
00000010: 13a5 98ba fc59 d3bb b177 733a 9e5f 883a
00000020: 6e00 2cbb 89fc 5dba bbdb 1b3a cf36 e6b9
00000030: 839a 34bb eaf6 f93b 2374 663c 5cd8 90bb
00000040: e43f 733a f433 90bb 1138 2abb 9770 9d3b
00000050: 9161 c6bb d693 0dbb 5c8d 133c 45fb 96bb
00000060: db3f 653c 1350 9cbb 9ee4 8fbb cfbe d4bb
00000070: 6c32 a53c 4540 dbbb 63c8 4b3b ffe2 e6bb
00000080: a948 d3bb cadc b2bb 3f3c 53bc c4b1 c6bb
00000090: 8ad6 e53b 9493 f5bb bfe2 d93c aa45 f1bb
000000a0: e08d 1dbc 8846 d2bb 4d4a d0bb 1051 2a3b
000000b0: c857 d7ba e2e4 fa3a bae6 a83a 207b 45b9
000000c0: 2ee8 d7ba 6166 57bb 4d0c 29bb ca38 143b
000000d0: dbb7 09bb fb80 0e3b 7ef8 293b bee7 4a3a
000000e0: 28d7 cc3b 689f e4ba 402a 6fbb 32f9 8cba
000000f0: 7ab2 92b9 c930 683c 9a0f 33bb c695 ba39
00000100: 3c59 fa3b 91bc 07bb 1744 563b 5298 81ba
00000110: f795 49bb ed33 e7bb cf44 1c3c d8e9 3ebb
00000120: f72e d0ba c806 44bb a2ab bcba 9fa6 7dbb
00000130: 8e47 d9bb 2c7c c9bb 4b46 b43b 72bb 40bb
00000140: a366 703c 327a 5fbb bae2 5cbb 7c6e eabb
00000150: ded2 dc3b 47b5 7fbb 099a a8bb 5e72 49bb
00000160: 2286 6abb 73b5 f6ba e618 1fbb 660c 653a
00000170: b0a9 143b 2dd9 64bb 5d67 1a3c dbdc 17bb
00000180: eb4f bebb 1cdf 0cbb 791c 8f3a df8e 9639
00000190: acfa 14bc 757e c1ba 8eb5 a5b9 ed8d e43b
000001a0: 63bc 9abb dfae 84bb 4fb1 e23a 250b 93ba
000001b0: e4e4 5d3b 7fc8 64ba 82d2 60ba 25cb 95bb
000001c0: 147d 51bc 16de ca3b 85bf f6bb 2dd2 923b
000001d0: 4849 cf3b be6d 2d3b e737 e13a 3a8c d63a
000001e0: f945 02ba 38f5 e43b 19f9 d3bb 6dec 573b
000001f0: 4da6 1a3c 9809 1abb dbb8 abbc 3c54 013c
00000200: 82aa 14bb c502 013c ed21 f13b 7019 1fbc
00000210: 6462 293c 85cf 893b 0984 07bc c52d 1f3c
00000220: 5e81 c0bc 108e eb3b 3ab5 643c 8b40 b53b
00000230: 522d 1d3c 6352 61bb a211 36bc 3b19 e5ba
00000240: 82c7 65bb 854c 363b a607 6cbb d03a aebb
00000250: 3b13 cc3b ae5b 69bb 07a7 743c 973f 4abb
00000260: 7583 6ebb b466 24bc 6b4a de3b 726f 47bb
00000270: 34a0 fbbb bc37 5cbb cd5f 75bb d691 1fbc
00000280: ba96 0dbb 3426 97bb 7937 88ba d7b9 5ebb
00000290: 3946 ff3b c403 1abb 61a9 8dbb b09c 6d3a

encoder.fc_mu.8.bias f4 [12]
-0.00020073693 -0.00015506218 -0.0004695542 -3.3086428e-05 -5.5613342e-05 -0.00029687205 -0.0003876519 -0.00014526241
0.0004434276 0.0006081744 7.489133e-05 -0.0003413812
00000000: e97c 52b9 3098 22b9 7f2e f6b9 48c6 0ab8
00000010: 5f42 69b8 7ea5 9bb9 c23d cbb9 9551 18b9
00000020: d87b e839 e56d 1f3a fa0e 9d38 69fb b2b9

encoder.fc_logvar.0.weight f4 [14, 14]
0.09074846 0.24202086 0.15837872 0.040392473 0.102132805 -0.03416114 0.2724321 0.16727458
0.23916574 0.20067343 0.0944591 0.1521353 0.075572774 -0.09662229 0.21578012 -0.025341325
0.32802638 0.06932392 0.12559396 -0.06357639 0.09546349 0.061287854 0.078084424 -0.033529446
-0.04712794 -0.11599154 -0.090778105 0.13014099 -0.0037676406 0.23238848 0.053336248 0.1360237
-0.2634594 -0.18841282 -0.07430068 -0.22160274 -0.14418906 0.037343286 -0.23067562 -0.23541076
-0.04166953 0.2466497 -0.15144442 -0.2540105 -0.1266594 0.15422197 -0.26455846 -0.20240548
0.035316356 -0.24221289 -0.15288907 0.17277731 0.11195338 0.20874247 0.006189861 -0.016996589
0.12328515 -0.13119781 -0.098749906 -0.12850459 -0.087413706 -0.17296764 -0.2159711 -0.17794257
-0.0026551788 -0.15260443 -0.25172523 0.06599062 -0.24523571 0.06567865 -0.10875716 -0.18789458
0.069680825 -0.21686456 0.063358776 0.19382802 -0.22379017 0.09272807 0.001960514 -0.16330941
-0.14558494 0.07421987 0.04402517 0.11814105 -0.15028454 -0.24919401 0.16082035 -0.24729249
0.18125245 -0.018083438 0.09417066 0.11594532 -0.23232813 0.12596671 -0.14921883 0.07987464
-0.045957394 0.04281565 -0.11094919 -0.013943371 0.09682781 0.10464487 -0.20764261 0.17735213
0.15628208 -0.17383508 0.030712958 -0.03674504 -0.2279955 0.14144485 -0.032335088 -0.05614616
-0.047099218 0.24574791 -0.07458769 0.27223152 0.0050085997 0.30437472 0.011372511 0.24337423
0.029664533 0.2851213 0.053130426 0.17214315 0.09818416 0.059941936 -0.12823105 0.13458127
-0.25404152 -0.12173173 -0.042023502 -0.06875232 -0.021166984 0.20597734 -0.20830783 -0.011561191
-0.25845906 0.079764664 0.054736856 -0.2085857 0.27173817 -0.17564821 0.14128345 0.09139708
0.29195553 0.09508362 -0.01155494 -0.09304629 0.082348764 -0.043716457 0.22446391 0.054873407
0.057092227 0.06834615 0.14853387 0.11378698 0.0061883954 -0.01036509 0.18855456 0.014252907
0.31254604 0.11450839 0.2559538 0.005285715 0.12296142 0.09556727 0.13312122 -0.07795414
0.15084247 -0.0021120992 0.02858552 -0.09820306 0.1314843 0.16692594 0.102441564 -0.27241436
-0.18017119 0.018784788 -0.25044614 -0.009847938 0.1580939 -0.12918554 -0.13452123 -0.1293082
-0.09481486 0.14996074 -0.086824864 -0.13815804 -0.18835951 0.09810449 -0.03850388 0.07310221
-0.13377933 -0.02294439 0.14114611 0.197757
00000000: 54da b93d 51d4 773e 082e 223e 9472 253d
00000010: 012b d13d 8dec 0bbd 387c 8b3e 074a 2b3e
00000020: dde7 743e 567d 4d3e c673 c13d 5bc9 1b3e
00000030: e6c5 9a3d e8e1 c5bd 77f5 5c3e 9c98 cfbc
00000040: 13f3 a73e b3f9 8d3d b49b 003e 5734 82bd
00000050: 5d82 c33d f908 7b3d baea 9f3d 2c56 09bd
00000060: 3a09 41bd f98c edbd dfe9 b9bd ae43 053e
00000070: 85ea 76bb 3ff7 6d3e 1c77 5a3d cc49 0b3e
00000080: 27e4 86be 4aef 40be f42a 98bd d4eb 62be
00000090: 4ca6 13be 46f5 183d 3b36 6cbe 850f 71be
000000a0: abad 2abd bd91 7c3e 3f14 1bbe aa0d 82be
000000b0: 00b3 01be 5dec 1d3e 3574 87be 6243 4fbe
000000c0: e2a7 103d a806 78be f48e 1cbe 89ec 303e
000000d0: d047 e53d 96c0 553e 51d4 ca3b 6e3c 8bbc
000000e0: ed7c fc3d b858 06be 643d cabd b596 03be
000000f0: f505 b3bd 6e1e 31be 8727 5dbe 9436 36be
00000100: 8202 2ebb 5644 1cbe 21e2 80be 1726 873d
00000110: 121f 7bbe 8782 863d 13bc debd 7067 40be
00000120: d2b4 8e3d be11 5ebe 3fc2 813d da7a 463e
00000130: 4029 65be 37e8 bd3d f87b 003b 953a 27be
00000140: 3814 15be 9600 983d bd53 343d eff3 f13d
00000150: 31e4 19be b72c 7fbe 17ae 243e 3e3a 7dbe
00000160: 3e9a 393e b823 94bc 8cdc c03d bd74 ed3d
00000170: 6de7 6dbe 6bfd 003e d2cc 18be 5195 a33d
00000180: d23d 3cbd 775f 2f3d 5439 e3bd bd72 64bc
00000190: a94d c63d 0d50 d63d 44a0 54be cc9b 353e
000001a0: 6908 203e d301 32be be99 fb3c f881 16bd
000001b0: a777 69be ebd6 103e cc71 04bd 84f9 65bd
000001c0: 1ceb 40bd 57a5 7b3e 6ec1 98bd ee61 8b3e
000001d0: 2e1f a43b 01d7 9b3e c553 3a3c 1837 793e
000001e0: 0903 f33c 6bfb 913e 4a9f 593d 4b46 303e
000001f0: c714 c93d ad85 753d 004f 03be accf 093e
00000200: bb11 82be 7c4e f9bd d620 2cbd 04ce 8cbd
00000210: 6266 adbc b9eb 523e a64e 55be 266b 3dbc
00000220: bf54 84be a85b a33d c133 603d 7d97 55be
00000230: 4421 8b3e 20dd 33be 9cac 103e 642e bb3d
00000240: 327b 953e 33bb c23d ee50 3dbc 0e8f bebd
00000250: 78a6 a83d 0710 33bd ded9 653e f0c2 603d
00000260: 8ad9 693d 11f9 8b3d 4319 183e 2609 e93d
00000270: 06c8 ca3b 57d2 29bc 7214 413e 0685 693c
00000280: 0906 a03e 6083 ea3d 600c 833e cb33 ad3b
00000290: 32d3 fb3d c6b8 c33d ee50 083e 6ca6 9fbd
000002a0: 7376 1a3e 256b 0abb 2e2c ea3c b01e c9bd
000002b0: d2a3 063e a2ee 2a3e e2cc d13d e579 8bbe
000002c0: cc7e 38be 8ee2 993c 7a3a 80be 3f59 21bc
000002d0: 5ee3 213e 3749 04be efbf 09be 5e69 04be
000002e0: 4b2e c2bd 4f8f 193e 3cd1 b1bd 4d79 0dbe
000002f0: 51e1 40be 02eb c83d 3fb6 1dbd 9db6 953d
00000300: 73fd 08be e0f5 bbbc 9b88 103e d080 4a3e

encoder.fc_logvar.0.bias f4 [14]
0.19674203 -0.05610897 -0.101205826 -0.052043762 0.18282627 -0.13263828 -0.23008735 -0.2454245
-0.13163875 0.050478455 -0.0072531574 -0.1293518 -0.25384176 0.19183896
00000000: be76 493e 85d2 65bd 0045 cfbd d72b 55bd
00000010: cf36 3b3e 54d2 07be 059c 6bbe 8f50 7bbe
00000020: 4fcc 06be 7fc2 4e3d e5ab edbb cc74 04be
00000030: 8cf7 81be 6f71 443e

encoder.fc_logvar.2.weight f4 [14]
1.0066637 1.0770928 0.9914688 1.0 0.9192 0.91988456 0.9700665 0.95909613
1.0591601 0.9702047 1.0906417 1.0765686 0.8863972 0.8365685
00000000: 5bda 803f 2dde 893f e6d0 7d3f 0000 803f
00000010: b150 6b3f 8e7d 6b3f 4756 783f 5387 753f
00000020: 8f92 873f 565f 783f 269a 8b3f 00cd 893f
00000030: edea 623f 5a29 563f

encoder.fc_logvar.2.bias f4 [14]
0.061018065 0.22102775 -0.038579945 0.17298746 -0.1484622 -0.073559664 0.083541065 0.028587898
0.06015537 -0.07775226 -0.05637614 -0.094777085 0.09976241 -0.10818746
00000000: 14ee 793d 1955 623e 0106 1ebd a023 313e
00000010: 7a06 18be 73a6 96bd 9417 ab3d 2b31 ea3c
00000020: 7a65 763d 943c 9fbd abea 66bd 7d1a c2bd
00000030: 3c50 cc3d 6391 ddbd

encoder.fc_logvar.2.running_mean f4 [14]
1.0174875 0.36987504 6e-45 0.0 6e-45 6e-45 6e-45 6e-45
0.48068696 6e-45 0.58399725 0.6089077 0.00017421227 0.04804898
00000000: 083d 823f 4360 bd3e 0400 0000 0000 0000
00000010: 0400 0000 0400 0000 0400 0000 0400 0000
00000020: 9a1c f63e 0400 0000 d880 153f 60e1 1b3f
00000030: c0ac 3639 02cf 443d

encoder.fc_logvar.2.running_var f4 [14]
0.04204944 0.02645113 6e-45 6e-45 6e-45 6e-45 6e-45 6e-45
0.010056103 6e-45 0.037004072 0.04336148 1.0168944e-05 0.00572955
00000000: 093c 2c3d 0ab0 d83c 0400 0000 0400 0000
00000010: 0400 0000 0400 0000 0400 0000 0400 0000
00000020: 5ac2 243c 0400 0000 9591 173d cf9b 313d
00000030: 489b 2a37 f3be bb3b

encoder.fc_logvar.4.weight f4 [14, 14]
-0.13618566 -0.12872685 -0.11790503 0.4171979 -0.18286444 -0.20334983 0.081271544 0.1425205
0.19901909 -0.23121351 -0.34023795 0.118792355 -0.22269742 -0.22545587 -0.037721 -0.19414978
-0.22803685 -0.010762759 0.11396884 -0.04422192 0.08778729 -0.14306639 -0.08265609 0.001964189
-0.124507025 -0.10558901 -0.07269991 0.10582748 -0.27299237 -0.014952489 0.22447081 0.4668564
0.09284176 0.0835606 0.07469673 0.012117529 0.08536124 -0.10116014 -0.3523787 -0.32432997
0.17312405 -0.1320764 -0.15215103 0.10784006 0.011260269 0.0907669 0.16363591 -0.08788922
-0.041186642 -0.07223933 -0.25514394 0.1573998 -0.1306844 -0.019407568 0.1285322 0.008421224
-0.18910252 -0.21766986 0.20721763 -0.05519429 0.11881528 -0.021866502 0.05583161 0.03919354
0.0006435037 0.029259257 -0.20254624 -0.1155253 0.16756482 0.042952403 -0.047543257 0.27252105
-0.0046241013 0.3373795 -0.17025097 -0.08301528 0.08535446 0.07535628 0.012255195 -0.09703361
-0.084671706 -0.19501776 0.1820203 -0.06081135 -0.21028593 0.037724297 -0.2651297 0.41257355
-0.22808538 -0.093229696 0.22610638 -0.03545634 -0.28972146 -0.043081988 0.069603264 0.03928017
0.15800926 -0.10872449 -0.13652197 0.23673867 -0.13384365 0.2510503 -0.09493138 -0.21667041
-0.006675271 0.090376 -0.08522074 0.18213736 0.058801528 -0.28640145 0.2201432 0.06288596
-0.12531438 -0.1187633 -0.049523223 0.19474004 -0.029049337 -0.00846324 -0.071805105 -0.25404868
0.27339795 -0.05315129 -0.17359568 -0.18572378 -0.05270573 -0.025945103 0.0010215262 -0.22070074
-0.14647791 0.2233876 -0.17665493 -0.17687851 -0.10960758 -0.057947785 -0.35583198 -0.100795105
-0.028583266 -0.3176121 0.12511271 0.23675962 -0.02148305 -0.081223466 -0.109749265 0.2667696
-0.13994673 0.053698137 -0.1676532 -0.20987293 -0.21768093 -0.22712843 0.0789237 -0.00951264
0.080414616 -0.12578024 -0.1454884 -0.13580246 -0.02793828 -0.2622523 0.13869087 0.0474637
-0.19899611 -0.29685158 0.0029128888 0.09885547 -0.12728904 -0.06932494 -0.16870357 0.013043214
0.24999818 0.31030095 0.11368468 0.18926233 0.12822884 0.058582466 0.05675478 0.048215643
-0.040867426 -0.044417623 0.30036142 0.2350925 0.026715793 -0.17086005 0.13248172 -0.29808795
0.1321081 0.053025864 0.12864554 0.20946282 -0.28180996 0.15480375 -0.09347152 -0.21543884
-0.2643206 -0.20750247 0.017761905 -0.07174586
00000000: 4174 0bbe f9d0 03be 3178 f1bd f79a d53e
00000010: d140 3bbe f03a 50be b271 a63d e5f0 113e
00000020: a9cb 4b3e 3cc3 6cbe ab33 aebe 6849 f33d
00000030: cb0a 64be e7dd 66be 5681 1abd 33cf 46be
00000040: 7e82 69be 4856 30bc 7f68 e93d 0b22 35bd
00000050: d3c9 b33d ff7f 12be 9947 a9bd a0b9 003b
00000060: 8afd febd 0d3f d8bd b1e3 94bd 14bc d83d
00000070: a8c5 8bbe 49fb 74bc addb 653e cd07 ef3e
00000080: d223 be3d d221 ab3d 99fa 983d 9a88 463c
00000090: e0d1 ae3d 0c2d cfbd fb6a b4be 940e a6be
000000a0: 6e47 313e 093f 07be 7bcd 1bbe 40db dc3d
000000b0: fe7c 383c ffe3 b93d 2c90 273e 43ff b3bd
000000c0: 53b3 28bd 37f2 93bd 3aa2 82be 6a2d 213e
000000d0: 22d2 05be 9ffc 9ebc f29d 033e 2cf9 093c
000000e0: 17a4 41be d9e4 5ebe dc30 543e 6813 62bd
000000f0: 6d55 f33d 6121 b3bc b0af 643d 6889 203d
00000100: cdb0 283a 1cb1 ef3c 4868 4fbe 8798 ecbd
00000110: 1d96 2b3e dcee 2f3d b8bc 42bd e187 8b3e
00000120: c685 97bb 01bd ac3e 4556 2ebe ea03 aabd
00000130: 52ce ae3d 6554 9a3d 03ca 483c 8fb9 c6bd
00000140: 5c68 adbd bcb2 47be 8863 3a3e 5215 79bd
00000150: 3255 57be cb84 1a3d 14bf 87be d73c d33e
00000160: 378f 69be 36ef bebd 6e88 673e ab3a 11bd
00000170: 5f56 94be bd76 30bd 288c 8e3d 3ee4 203d
00000180: 2ecd 213e f2aa debd 6acc 0bbe 9f6b 723e
00000190: 4f0e 09be aa89 803e 626b c2bd d9de 5dbe
000001a0: 3bbc dabb 0d17 b93d 3688 aebd 3782 3a3e
000001b0: dfd9 703d 36a3 92be 386d 613e 5bca 803d
000001c0: 6a52 00be 2c3a f3bd ddd8 4abd ef69 473e
000001d0: e0f8 edbc 67a9 0abc 8e0e 93bd ab12 82be
000001e0: d1fa 8b3e 2bb5 59bd 11c3 31be 602e 3ebe
000001f0: f7e1 57bd d38a d4bc bbe4 853a 60ff 61be
00000200: 4efe 15be b8bf 643e 08e5 34be a41f 35be
00000210: f079 e0bd a85a 6dbd 9c2f b6be aa6d cebd
00000220: 7427 eabc 0e9e a2be 8c1d 003e 1d71 723e
00000230: 39fd afbc 7d58 a6bd 39c4 e0bd 0696 883e
00000240: 324e 0fbe 94f2 5b3d 48ad 2bbe eee8 56be
00000250: c0e7 5ebe 5b94 68be c0a2 a13d e7da 1bbc
00000260: 6bb0 a43d 89cc 00be e9fa 14be cd0f 0bbe
00000270: d2de e4bc ef45 86be fb04 0e3e 4c69 423d
00000280: a3c5 4bbe eefc 97be 2ae6 3e3b bd74 ca3d
00000290: 0f58 02be 3cfa 8dbd a1c0 2cbe 34b3 553c
000002a0: 86ff 7f3e c4df 9e3e 83d3 e83d fccd 413e
000002b0: 6c4e 033e 2bf4 6f3d b377 683d c47d 453d
000002c0: 9a64 27bd 41ef 35bd f9c8 993e 17bc 703e
000002d0: 14db da3c f0f5 2ebe 4aa9 073e fc9e 98be
000002e0: 5947 073e a631 593d a8bb 033e 6c7d 563e
000002f0: 6549 90be e084 1e3e ff6d bfbd 009c 5cbe
00000300: 0855 87be 877b 54be 6a81 913c 7eef 92bd

encoder.fc_logvar.4.bias f4 [14]
-0.13242452 -0.1292324 0.004360048 0.0067903325 -0.24660686 0.19140947 0.056615178 0.24045627
0.19273917 -0.21454282 0.12729332 -0.0074413824 -0.065119095 0.19004013
00000000: 4b9a 07be 8055 04be bcde 8e3b 7081 de3b
00000010: 8286 7cbe d800 443e 51e5 673d 2b3a 763e
00000020: 6b5d 453e 1db1 5bbe 2e59 023e d7d6 f3bb
00000030: 295d 85bd e199 423e

encoder.fc_logvar.6.weight f4 [14]
0.0028007913 0.0064687342 0.00054168614 0.005967469 0.007266173 0.0065333103 0.002856536 0.00013477968
0.0027971643 0.0023096662 0.0021072924 0.002790217 0.0048973807 -0.001591177
00000000: 7b8d 373b adf7 d33b f1ff 0d3a c28a c33b
00000010: 1419 ee3b 6115 d63b b934 3b3b a553 0d39
00000020: a150 373b c55d 173b 801a 0a3b 13dc 363b
00000030: 357a a03b 0a8f d0ba

encoder.fc_logvar.6.bias f4 [14]
-0.00040834924 5.7609952e-05 -2.4732712e-05 -0.0011096391 -0.0019669891 -0.0006832831 -0.0011117472 0.00074179674
-0.00051005476 0.000708272 -0.0005399006 -0.0016474796 0.0026323213 0.0025737532
00000000: b517 d6b9 37a2 7138 1879 cfb7 4f71 91ba
00000010: 9ae8 00bb 5a1e 33ba 0cb8 91ba 2375 423a
00000020: 32b5 05ba 54ab 393a 1e88 0dba 3ef0 d7ba
00000030: 0683 2c3b 6aac 283b

encoder.fc_logvar.6.running_mean f4 [14]
0.18318112 0.16240272 0.450617 0.17479125 0.19551584 0.40697432 0.2722271 0.40455422
0.37554976 0.2859179 0.21440507 0.14242868 0.52606624 0.3531064
00000000: d593 3b3e e64c 263e 45b7 e63e 7afc 323e
00000010: 4e35 483e f05e d03e 5a61 8b3e bb21 cf3e
00000020: 0f48 c03e d563 923e 018d 5b3e d3d8 113e
00000030: 47ac 063f 5dca b43e

encoder.fc_logvar.6.running_var f4 [14]
0.067010835 0.081553854 0.31357983 0.07157271 0.109582365 0.055801224 0.075232 0.11835051
0.15402922 0.27715436 0.037721176 0.05275229 0.3467475 0.21535273
00000000: fa3c 893d b505 a73d 898d a03e b794 923d
00000010: b86c e03d d38f 643d 3c13 9a3d c161 f23d
00000020: d6b9 1d3e 2de7 8d3e 8581 1a3d c912 583d
00000030: e388 b13e 6d85 5c3e

encoder.fc_logvar.8.weight f4 [12, 14]
-0.001394084 -0.00022846244 -0.002073452 0.0058713215 -0.0021318686 0.0023777855 -0.002134721 0.0011829156
-0.0072215637 0.0038037738 -0.0006608421 -0.009443639 -0.010409445 -0.0013625182 -0.014644399 0.006037985
-0.0024724149 0.0072782035 0.0039310018 0.008723001 0.0054686693 -0.001511929 -0.010401635 0.004741598
-0.0020144628 0.003780747 -0.0005832731 0.0021936458 -0.0016018453 0.0036819926 0.0004998187 0.0039055226
0.0050996556 0.002222515 0.0022236926 0.005310895 -0.0027555407 0.0070612906 0.0068943347 0.0030711
0.008637646 0.0017923916 -0.003819967 0.0010911233 0.0010959539 0.005325709 -0.0018178003 0.010657245
0.0019068688 -0.0013410258 0.004788894 0.0019512917 -0.001863452 -0.0011481901 -0.0071077887 -0.00066346995
-0.0012719583 -0.007648142 -0.0012345552 0.0005508603 -0.007214299 0.010103987 0.0032371879 0.0007863751
-0.007854451 0.0038881549 5.3330452e-05 -0.007022824 -0.010625162 0.007105998 -0.0046886527 0.011748516
-0.002069177 0.012566683 0.008320858 0.0031915791 0.008747797 -0.0017648047 -0.008357727 0.005631777
0.0005153424 0.010521745 0.0106557915 -0.0011132051 -0.0059269094 0.020583373 -0.00051481504 0.016602753
0.01725306 0.0034573094 0.012036173 0.0018607522 -0.009852223 0.014446284 -0.004307464 0.012580842
0.009637225 0.0023350427 0.0021943888 -0.0061427085 -0.0021501253 -0.002098481 -0.006235934 0.0037162767
-0.00081264897 0.0019473223 0.0033636559 -0.004793251 0.00055734057 -0.0072440514 -0.010307224 -0.0022625222
-0.0026517657 0.015072892 0.0018172044 0.004505755 0.00874392 4.322831e-05 0.0059690676 -0.0016865726
-0.0027507069 0.009082462 0.008340478 0.0014265196 0.0036804138 -0.007732829 -0.008797583 0.0057421755
0.0035134517 0.013859355 0.00830827 0.005543693 0.003788534 -0.0038608809 -0.008912176 0.001865576
0.0042395494 0.004155938 -0.0068687866 -0.003525428 -0.00010029487 0.0055486285 -0.0024399944 0.0073933997
0.0025122478 0.00039134378 0.0035301486 0.0005753728 -0.005576962 0.004895252 0.00088726945 -0.0005935883
-0.0005443672 0.00096063054 -0.0032035958 -0.0015286076 0.0008113555 0.011827858 0.003854104 0.017661298
0.008441586 -0.0015513035 -0.0089886775 0.0052500195 -0.0036204902 -0.0020132167 -0.0019881972 0.0036249687
00000000: b2b9 b6ba 6b8f 6fb9 c1e2 07bb 3764 c03b
00000010: d2b6 0bbb 9fd4 1b3b ade6 0bbb 100c 9b3a
00000020: dea2 ecbb bc48 793b 5d3c 2dba 7eb9 1abc
00000030: 608c 2abc 8696 b2ba 10ef 6fbc 4ada c53b
00000040: 3d08 22bb ff7d ee3b a2cf 803b ebea 0e3c
00000050: 8632 b33b eb2b c6ba 9f6b 2abc 685f 9b3b
00000060: 1405 04bb 69c6 773b cce6 18ba 45c3 0f3b
00000070: 02f5 d1ba 964d 713b 4406 033a ccf3 7f3b
00000080: 031b a73b 9da7 113b 5fbb 113b 0407 ae3b
00000090: 4d96 34bb 6662 e73b dfe9 e13b 8244 493b
000000a0: ea84 0d3c afee ea3a 6958 7abb 0604 8f3a
000000b0: 1ca6 8f3a 4983 ae3b 4243 eeba ba9b 2e3c
000000c0: e6ef f93a 5cc5 afba 28ec 9c3b 7cc2 ff3a
000000d0: 133f f4ba de7e 96ba 74e8 e8bb b7ec 2dba
000000e0: d7b7 a6ba 449d fabb ccd0 a1ba 9c67 103a
000000f0: ed65 ecbb 318b 253c 0027 543b bd24 4e3a
00000100: f5af 00bc 6ad0 7e3b 23af 5f38 b81f e6bb
00000110: 2915 2ebc 6fd9 e83b 45a3 99bb d97c 403c
00000120: 089b 07bb 7de4 4d3c 3554 083c d029 513b
00000130: ec52 0f3c 0551 e7ba d9ee 08bc c58a b83b
00000140: 0b18 073a 6663 2c3c a195 2e3c f7e8 91ba
00000150: 8536 c2bb 769e a83c a7f4 06ba 7f02 883c
00000160: 4a56 8d3c 0794 623b 5e33 453c 7ce4 f33a
00000170: 386b 21bc 1bb0 6c3c a125 8dbb e01f 4e3c
00000180: 74e5 1d3c 8407 193b bccf 0f3b c648 c9bb
00000190: 1ee9 0cbb ab86 09bb ce56 ccbb c78c 733b
000001a0: f307 55ba 4b3d ff3a c870 5c3b b410 9dbb
000001b0: 7e1a 123a 825f edbb a1df 28bc d346 14bb
000001c0: 3fc9 2dbb 4bf4 763c 432f ee3a 03a5 933b
000001d0: a942 0f3c 0b50 3538 2b98 c33b fc0f ddba
000001e0: 3445 34bb 9bce 143c 80a6 083c 0efa ba3a
000001f0: 1933 713b ac63 fdbb bd23 10bc dc28 bc3b
00000200: f041 663b 5912 633c 691f 083c dea7 b53b
00000210: 0e49 783b d506 7dbb 6004 12bc 5886 f43a
00000220: ebeb 8a3b 892e 883b 8f13 e1bb de0a 67bb
00000230: 6655 d2b8 45d1 b53b 50e8 1fbb 5544 f23b
00000240: 86a4 243b 462d cd39 115a 673b 9dd4 163a
00000250: f3be b6bb 5a68 a03b a597 683a 099b 1bba
00000260: ddb3 0eba d3d2 7b3a 6bf3 51bb 8f5b c8ba
00000270: 25b1 543a a2c9 413c 2395 7c3b 6dae 903c
00000280: 944e 0a3c 1c55 cbba 3f45 13bc 5b08 ac3b
00000290: bf45 6dbb 2cf0 03bb 6a4c 02bb e290 6d3b

encoder.fc_logvar.8.bias f4 [12]
8.4143416e-05 -0.00036719503 -3.5001012e-05 0.00016558073 -0.00021990153 2.6446658e-05 0.0001459108 -3.1530733e-05
0.00019728823 -7.450602e-06 -0.00023247939 0.00034623686
00000000: 2776 b038 1584 c0b9 0dce 12b8 bd9f 2d39
00000010: 5e95 66b9 c4d9 dd37 a2ff 1839 de3f 04b8
00000020: 28df 4e39 2f00 fab6 b6c5 73b9 2087 b539

decoder.linear.0.weight f4 [13, 13]
1.000993 0.018267432 0.003986294 0.00426069 -0.0072567305 -0.008375507 -0.0031251912 0.003969565
0.0027867763 -0.008207876 -0.012219361 9.595978e-05 0.010981522 0.97119397 0.0035695536 0.004874307
0.008513976 0.0026517045 -0.0043605655 0.0024324998 -0.002192751 0.0034513916 -0.010108776 -0.0068466
-0.0027912287 0.009656673 -0.9219233 0.03919707 0.01717537 0.02817824 -0.009750498 -0.018155
-0.005916199 0.046456125 0.008307438 -0.036647853 0.0112161795 -0.05691291 0.02633678 0.7970929
-0.0060007763 0.0005032808 -0.0069141476 0.00758991 -0.0030083281 -0.00027637073 -0.0071740597 0.007080433
-0.0034060467 0.003969654 0.0021808066 -0.0082759755 0.9162682 0.01407502 0.011230401 -0.0021264893
-0.024572683 -0.022637047 0.0029303057 -0.022569485 -0.028955914 0.027731078 0.034690354 0.016196012
0.007880191 -0.67899126 0.019194642 -0.016326047 -0.008267996 0.018904252 -0.012036656 -0.002469143
-0.013631833 0.0017845653 -0.0011933849 -0.023598135 0.023622932 -0.009416247 -0.7344403 -0.0067904843
0.0055004335 -0.0016103662 0.02851938 0.010392932 0.0011913703 -0.0072326055 0.008176228 -0.0011579165
0.0034527963 -0.01757561 0.01460793 -0.37454858 -0.1011976 0.15816347 -0.05804721 -0.10663699
0.13017224 0.03790717 -0.019716086 -0.024287274 0.101520784 0.020726625 0.043474425 -0.17190021
-0.3732999 0.071222626 0.08524064 -0.022637077 -0.064634815 -0.049878668 0.008958461 -0.09531822
0.022833785 0.17478661 0.040672746 -0.13207348 -0.06059285 -0.56994784 0.16593492 -0.19230777
-0.017451158 -0.15174605 -0.091297425 -0.19526751 0.2027539 0.044622336 0.1082984 -0.2439933
0.06303535 0.068483435 -0.88783723 -0.007395812 0.0051101125 -0.123541795 -0.11291674 -0.16128445
-0.13389745 -0.18558414 -0.13570836 0.2224961 0.20240338 0.1907216 -0.21172406 -0.7195979
-0.08515364 -0.0699843 -0.08388998 0.050151564 -0.046051785 -0.1395258 -0.21748729 0.03640534
0.13725019 0.19745037 -0.036994446 -0.0753529 1.0251904 -0.018344095 0.001714106 0.005001426
0.009462298 0.0032922481 -0.008426281 -0.0018343736 0.0022268146 0.010966002 0.012662951 0.00019744453
-0.012374588
00000000: 8a20 803f 95a5 953c 759f 823b 429d 8b3b
00000010: dec9 edbb 6c39 09bc 02d0 4cbb 2013 823b
00000020: 59a2 363b 547a 06bc b733 48bc 043e c938
00000030: d7eb 333c 2ba0 783f 2cef 693b a7b8 9f3b
00000040: 347e 0b3c 38c8 2d3b 13e3 8ebb 936a 1f3b
00000050: 42b4 0fbb be30 623b 489f 25bc 7259 e0bb
00000060: 0ced 36bb 0637 1e3c 2a03 6cbf 1b8d 203d
00000070: 5db3 8c3c 0dd6 e63c 8ec0 1fbc cbb9 94bc
00000080: addc c1bb c748 3e3d ec1b 083c 0f1c 16bd
00000090: 11c4 373c 831d 69bd 3bc0 d73c 480e 4c3f
000000a0: 29a2 c4bb 9aee 033a 1390 e2bb c8b4 f83b
000000b0: 5f27 45bb dae5 90b9 6014 ebbb fa02 e83b
000000c0: fb37 5fbb df13 823b ddeb 0e3b f597 07bc
000000d0: 8e90 6a3f ea9a 663c b7ff 373c 925c 0bbb
000000e0: a74c c9bc 5471 b9bc 5f0a 403b a4e3 b8bc
000000f0: f434 edbc 492c e33c 7917 0e3d 80ad 843c
00000100: eb1b 013c 5fd2 2dbf 153e 9d3c 34be 85bc
00000110: 7d76 07bc 17dd 9a3c 6535 45bc 58d1 21bb
00000120: 0d58 5fbc 13e8 e93a 5a6b 9cba e050 c1bc
00000130: e184 c13c 9a46 1abc 4804 3cbf b682 debb
00000140: fb3c b43b ec12 d3ba 7aa1 e93c 1e47 2a3c
00000150: c127 9c3a 7eff ecbb 96f5 053c 3bc5 97ba
00000160: 4f48 623b bafa 8fbc 1956 6f3c d5c4 bfbe
00000170: b040 cfbd 9bf5 213e e9c2 6dbd 7f64 dabd
00000180: df4b 053e 8c44 1b3d a183 a1bc 1bf6 c6bc
00000190: 21ea cf3d e2ca a93c 3d12 323d 9c06 30be
000001a0: 2a21 bfbe 2bdd 913d a592 ae3d 6471 b9bc
000001b0: 425f 84bd 934d 4cbd 82c6 123c 3336 c3bd
000001c0: eb0d bb3c 43fb 323e 7798 263d 453e 07be
000001d0: 3530 78bd 1ae8 11bf d8ea 293e 54ec 44be
000001e0: bbf5 8ebc 5163 1bbe 25fa babd 35f4 47be
000001f0: b89e 4f3e e9c5 363d 8dcb dd3d 61d9 79be
00000200: ad18 813d 0b41 8c3d 4d49 63bf 9158 f2bb
00000210: bb72 a73b 7b03 fdbd e440 e7bd c027 25be
00000220: 6a1c 09be c509 3ebe 22f7 0abe 05d6 633e
00000230: d542 4f3e 864c 433e 31ce 58be 9137 38bf
00000240: 0865 aebd ee53 8fbd 83ce abbd ba6b 4d3d
00000250: cca0 3cbd dadf 0ebe fdb4 5ebe c41d 153d
00000260: 508b 0c3e 6e30 4a3e 7d87 17bd 9f52 9abd
00000270: 7039 833f 5b46 96bc daab e03a 01e3 a33b
00000280: c107 1b3c c2c2 573b 620e 0abc 5d6f f0ba
00000290: c0ef 113b bfaa 333c 4478 4f3c 1d09 4f39
000002a0: c9be 4abc

decoder.linear.0.bias f4 [13]
0.23720104 0.16037479 0.6256628 -0.06903879 -0.09915315 0.5531062 0.5592762 -0.16214946
-0.06185788 -0.09821875 0.27197585 0.22066024 0.056708556
00000000: d4e4 723e 4a39 243e 702b 203f 3664 8dbd
00000010: cf10 cbbd 5e98 0d3f ba2c 0f3f 820a 26be
00000020: b05e 7dbd e926 c9bd 6b40 8b3e c2f4 613e
00000030: 3b47 683d

decoder.linear.2.weight f4 [13]
0.8070448 0.6895355 0.7034827 0.82671475 0.67812735 0.8499072 0.91680527 0.4023535
0.41375843 0.31919453 0.50392854 0.51619625 0.7338985
00000000: 7d9a 4e3f 6685 303f 7117 343f 94a3 533f
00000010: c199 2d3f 8593 593f c0b3 6a3f 4701 ce3e
00000020: 25d8 d33e 776d a33e 7601 013f 7025 043f
00000030: c6e0 3b3f

decoder.linear.2.bias f4 [13]
0.6543635 0.62226236 -0.21889132 0.70408577 0.3618524 -0.14391579 -0.3727621 0.3304772
0.011385223 0.5449538 0.30037773 0.21869871 0.61955315
00000000: 5e84 273f 964c 1f3f 0c25 60be f73e 343f
00000010: b844 b93e a95e 13be adda bebe 4f34 a93e
00000020: 1689 3a3c 1882 0b3f 1ccb 993e 8ef2 5f3e
00000030: 099b 1e3f

decoder.linear.2.running_mean f4 [13]
0.74159324 0.6494757 0.30863443 0.36642557 0.40909237 0.2759666 0.2754382 0.037180744
0.04727054 0.08196915 0.22412992 0.1620268 0.5720397
00000000: 0ed9 3d3f 0a44 263f 5505 9e3e 229c bb3e
00000010: 8e74 d13e 7f4b 8d3e 3c06 8d3e d64a 183d
00000020: c19e 413d 71df a73d 5082 653e 5aea 253e
00000030: 3271 123f

decoder.linear.2.running_var f4 [13]
0.25338492 0.24015978 0.10355314 0.13437246 0.16717106 0.079502165 0.079014115 0.010870515
0.014866249 0.037135825 0.12962107 0.06981953 0.26856712
00000000: abbb 813e 72ec 753e ab13 d43d ef98 093e
00000010: e42e 2b3e 08d2 a23d 27d2 a13d 3f1a 323c
00000020: 9191 733c bc1b 183d 63bb 043e 8bfd 8e3d
00000030: a181 893e

decoder.linear.4.weight f4 [13, 13]
-0.15064116 -0.32402283 0.023354264 -0.25688565 -0.05204656 0.052901827 -0.08827919 -0.01513044
-0.0017348233 -0.056472987 -0.058646124 0.056573816 -0.23589966 -0.202563 -0.13241203 0.036428407
-0.17732012 -0.063222796 0.006050929 0.17744257 0.0039728745 -0.07116879 0.14386047 0.08376453
-0.0117946835 -0.24075694 -0.07578513 -0.10236013 0.072481625 -0.16638541 -0.075548805 0.11002435
0.082414575 0.117760815 -0.088322885 0.09461541 -0.03665933 0.10551896 -0.1863645 -0.103747964
-0.13935605 0.0499735 -0.1502702 -0.097967215 0.066973284 0.08285363 0.114883624 -0.042536575
0.059129998 -0.039637502 0.05979595 -0.13673156 -0.1968104 -0.24363017 0.005895163 -0.22923076
0.022215266 0.00030219165 -0.056798056 -0.036195062 0.045914955 -0.030296527 -0.03926989 0.025319977
-0.18439253 -0.13218533 -0.20696509 0.113376744 -0.16822459 -0.11501681 0.015462981 0.055752218
-0.027116057 -0.021463279 -0.07776106 0.04263011 0.010048564 -0.14948191 -0.20197147 -0.232377
0.04412501 -0.22526686 -0.13591684 0.002983495 0.17671068 0.044010896 -0.02117647 0.060825527
0.074332364 -0.03786341 -0.12639378 -0.15499118 -0.22215335 0.058918666 -0.33697337 -0.18235515
0.15372582 0.0935391 0.13588156 -0.047494393 0.056912526 -0.075802244 0.06247697 -0.25229573
-0.15118444 -0.17035772 -0.020173881 -0.1544135 -0.1844948 -0.008861374 0.05411437 -0.05446731
0.08136093 -0.012287402 0.052631777 -0.055584777 -0.083014585 -0.14333333 -0.15022185 0.05861284
-0.18734807 -0.16435745 0.09451603 0.08388669 0.12146848 -0.0407259 0.13237458 -0.01407264
0.08932939 -0.2055565 0.1346367 0.036454182 -0.3433806 0.034972806 0.26140448 -0.34718475
-0.27517676 -0.03942805 -0.075418286 -0.06903069 -0.1474992 -0.11794108 0.15352714 -0.16763406
-0.2232558 0.02506907 -0.20407072 -0.015085902 0.0127330925 -0.011633313 0.0011242261 0.016578842
-0.031216616 -0.02492789 0.009285792 -0.15027787 -0.26594332 -0.28127664 -0.036855046 -0.24738427
-0.16393882 -0.039437007 0.113583416 -0.045332428 0.054242432 -0.00950598 0.099414155 -0.08562625
-0.23184904
00000000: ad41 1abe 52e6 a5be 7151 bf3c 8486 83be
00000010: c62e 55bd 96af 583d b8cb b4bd aae5 77bc
00000020: 0363 e3ba 3850 67bd eb36 70bd f2b9 673d
00000030: ae8f 71be ad6c 4fbe 0597 07be f435 153d
00000040: 6893 35be f47a 81bd df46 c63b 81b3 353e
00000050: e32e 823b f1c0 91bd 2950 133e bd8c ab3d
00000060: 7d3e 41bc fd88 76be 3c35 9bbd 30a2 d1bd
00000070: 3f71 943d f060 2abe 55b9 9abd 7254 e13d
00000080: f9c8 a83d 952c f13d a1e2 b4bd b9c5 c13d
00000090: 1828 16bd 531a d83d 56d6 3ebe d079 d4bd
000000a0: 5ab3 0ebe 03b1 4c3d 6ee0 19be 09a3 c8bd
000000b0: 4a29 893d 2aaf a93d 1b48 eb3d d53a 2ebd
000000c0: 4c32 723d ef5a 22bd 99ec 743d 5c03 0cbe
000000d0: aa88 49be 307a 79be 362c c13b 78bb 6abe
000000e0: cafc b53c 7a6f 9e39 14a5 68bd 4641 14bd
000000f0: 5211 3c3d 6c30 f8bc 77d9 20bd d76b cf3c
00000100: 65d1 3cbe 975b 07be a8ee 53be 1132 e83d
00000110: 1143 2cbe ef8d ebbd 7158 7d3c 705c 643d
00000120: 7e22 debc c2d3 afbc 3141 9fbd e99c 2e3d
00000130: bba2 243c c911 19be 9cd1 4ebe 3cf4 6dbe
00000140: 6dbc 343d 5bac 66be c92d 0bbe bd86 433b
00000150: a5f3 343e c544 343d 477a adbc 3024 793d
00000160: 913b 983d aa16 1bbd 5f6d 01be 02b6 1ebe
00000170: 2b7c 63be b354 713d c687 acbe 4fbb 3abe
00000180: 4d6a 1d3e 6d91 bf3d 8924 0b3e 7b89 42bd
00000190: 1c1d 693d 353e 9bbd dae7 7f3d e82c 81be
000001a0: 18d0 1abe 4172 2ebe b243 a5bc 931e 1ebe
000001b0: 34ec 3cbe 4c2f 11bc 08a7 5d3d 1d19 5fbd
000001c0: 8fa0 a63d 1951 49bc 6b94 573d ddac 63bd
000001d0: 8d03 aabd f9c5 12be c2d3 19be 0414 703d
000001e0: 2cd8 3fbe 524d 28be 9f91 c13d c9cc ab3d
000001f0: 77c4 f83d 34d0 26bd 348d 073e ee90 66bc
00000200: 54f2 b63d 677d 52be 34de 093e fb50 153d
00000210: 95cf afbe a53f 0f3d cfd6 853e 33c2 b1be
00000220: f8e3 8cbe 4f7f 21bd e774 9abd f65f 8dbd
00000230: 080a 17be 188b f1bd 3836 1d3e 43a8 2bbe
00000240: 2b9d 64be a65d cd3c eaf7 50be dc2a 77bc
00000250: 769e 503c a799 3ebc c55a 933a 5ad0 873c
00000260: fdb9 ffbc 9335 ccbc 6f23 183c 71e2 19be
00000270: b929 88be 7e03 90be 51f5 16bd 4d52 7dbe
00000280: 94df 27be b388 21bd 6c9e e83d 7fae 39bd
00000290: 502d 5e3d f8be 1bbc a699 cb3d d15c afbd
000002a0: d669 6dbe

decoder.linear.4.bias f4 [13]
0.7320752 0.7175709 0.5882932 0.5577512 0.5656088 0.73983955 0.8111045 -0.41799408
0.59058 0.709533 0.46102425 0.5735462 0.91905445
00000000: 4869 3b3f bab2 373f 629a 163f c8c8 0e3f
00000010: bdcb 103f 2066 3d3f 8ba4 4f3f 5203 d6be
00000020: 4030 173f f4a3 353f 5f0b ec3e ecd3 123f
00000030: 2747 6b3f

decoder.linear.6.weight f4 [13]
0.6973978 0.5019015 0.5660125 0.6538025 0.6704471 0.6956838 0.68290544 0.37520805
0.67198 0.5225994 0.77566653 0.6570765 0.6626479
00000000: aa88 323f 9e7c 003f 32e6 103f 9a5f 273f
00000010: 6ca2 2b3f 5518 323f e4d2 2e3f 451b c03e
00000020: e206 2c3f 13c9 053f 1592 463f 2a36 283f
00000030: 4ba3 293f

decoder.linear.6.bias f4 [13]
-0.12178686 0.2742811 0.21716015 -0.16595401 0.28573745 0.051584233 -0.019491531 0.4189987
0.272942 -0.28995997 0.25913155 -0.21757728 -0.26779974
00000000: 646b f9bd 936e 8c3e 3b5f 5e3e d9ef 29be
00000010: 2e4c 923e fd49 533d b4ac 9fbc ff86 d63e
00000020: 0ebf 8b3e a275 94be e4ac 843e 94cc 5ebe
00000030: 0c1d 89be

decoder.linear.6.running_mean f4 [13]
0.3985149 0.5286044 0.4729566 0.42075214 0.29278293 0.4475987 0.56336385 0.03627169
0.35130236 0.5668816 1.1140387 0.32153425 0.5450046
00000000: 250a cc3e 9e52 073f 5e27 f23e d36c d73e
00000010: a5e7 953e a82b e53e 9d38 103f a091 143d
00000020: e7dd b33e 271f 113f d298 8e3f 23a0 a43e
00000030: 6c85 0b3f

decoder.linear.6.running_var f4 [13]
0.17140865 0.3024525 0.24276963 0.19191469 0.09327774 0.2159168 0.34097677 0.0060261996
0.13390869 0.34846425 1.2874199 0.111395486 0.32083172
00000000: c085 2f3e 0edb 9a3e 9a98 783e 4985 443e
00000010: 6608 bf3d 4b19 5d3e 8294 ae3e 6d77 c53b
00000020: 5c1f 093e e869 b23e 2dca a43f 5123 e43d
00000030: 0e44 a43e
