generator/model.pt (torch, 2643 bytes, 4 tensors)

encoder.linear.0.weight f4 [7, 14]
000000 73 01 28 3e 50 9a 16 3e f6 ea 69 3f 23 ae aa 3e
       0.16406803 0.14707303 0.91374147 0.3333598
000010 65 10 bf be 4e b1 9b 3d dd 1b 7e 3f 61 10 9b 3e
       -0.37317196 0.076021776 0.99261266 0.30285934
000020 be d9 ff be 8d 26 c1 3d 66 d6 ae be 98 0b ac 3e
       -0.49970812 0.09431181 -0.34147948 0.33602595
000030 b4 26 54 bf 06 e2 07 3f 8d 61 72 3f 9b 31 e5 3d
       -0.82871556 0.5307926 0.946801 0.11191102
000040 fe 02 f7 be 95 c5 9d bd e8 9b dd 3e 28 66 71 3d
       -0.4824447 -0.077037014 0.4328301 0.058935314
000050 53 63 96 be 40 cb a5 bc 73 2b f7 be b5 31 f8 bd
       -0.29372653 -0.020238519 -0.48275337 -0.12118856
000060 dc 45 f0 be 79 34 14 be f7 ae 64 bf bd 3a 97 bf
       -0.46928298 -0.14473142 -0.89329475 -1.18148
000070 5c e7 cc be 90 45 97 be e4 69 8f 3f 56 14 d1 bb
       -0.40020263 -0.2954526 1.120419 -0.006380598
000080 95 d3 48 3e 1f b5 90 be 98 95 52 bf e6 b7 f6 be
       0.19611962 -0.28263184 -0.8225951 -0.48187178
000090 e5 c3 95 bf 25 a8 81 be 7e ff 6a bf 83 6a 1c bf
       -1.1700407 -0.25323597 -0.917961 -0.61100024
0000a0 9b 20 18 3d 6c cd c2 3d ec d2 1f 3f 23 4c f1 3d
       0.03714047 0.09511837 0.62431216 0.117821
0000b0 06 59 83 3f d1 36 eb 3e 1e 43 99 bf b5 9b a5 be
       1.0261543 0.4594026 -1.1973608 -0.32345358
0000c0 1b 54 f9 bd ae 9c c5 bc a9 04 04 be 91 06 69 3c
       -0.12174245 -0.024122562 -0.12892403 0.014222757
0000d0 7a a4 86 3e 55 5b 47 3e c8 de 82 3e 0a 5b 84 bf
       0.2629736 0.19468434 0.25560594 -1.0340283
0000e0 c4 2c a7 3f 4f b6 ab 3e ad d2 44 be 2c 33 85 bd
       1.3060536 0.33537528 -0.19220991 -0.06503901
0000f0 57 11 11 bf 3f 6c 23 be 53 99 54 3e 39 fb f6 3d
       -0.56667084 -0.15959261 0.20761614 0.12059636
000100 22 27 1f 3e c1 ed fb bc d4 a7 9e bf 8b 85 45 be
       0.15542272 -0.030753018 -1.2394967 -0.19289224
000110 51 67 13 3f 8d ff aa 3e 10 4d c2 3d a0 61 c5 bd
       0.57579523 0.33398095 0.09487355 -0.09637761
000120 ae 35 18 3e b8 b8 bb bd 24 dd 85 bf 6d 28 bd be
       0.14864227 -0.09166092 -1.0458112 -0.36944905
000130 ba ca 5f bf 95 5e bb be cb 7a 57 3f 5f a0 85 b8
       -0.8741871 -0.36595598 0.8417174 -6.371806e-05
000140 1d 41 cd be 41 a8 cc be 35 72 53 bf a8 23 a7 3e
       -0.4008874 -0.39972118 -0.8259614 0.3264439
000150 ee 46 93 3f 82 d5 19 3e b3 5e 06 bf 71 11 c4 bd
       1.1506021 0.15022853 -0.5248825 -0.09573639
000160 c6 e3 17 bf ba d1 67 be 54 6d 0c bf 58 8c 22 be
       -0.5933193 -0.22638598 -0.5485432 -0.1587385
000170 44 de 82 bf 7b 45 d7 be f1 9a 4f 3f e9 e1 8f bd
       -1.022408 -0.42045197 0.81095797 -0.07025511
000180 38 b7 3c be 4d 5e 23 3f
       -0.18429267 0.63815767

encoder.linear.0.bias f4 [7]
000000 4c 25 43 bf 49 e6 8f 3f c7 3a da 3f ac 44 bd be
       -0.76228786 1.1242152 1.7049187 -0.36966455
000010 d2 56 93 be 9a 8e b3 3f bf 5f 1a 3f
       -0.28777176 1.4027894 0.60302347

decoder.linear.0.weight f4 [14, 8]
000000 2b 86 b7 3f 72 cc 18 3f 76 a8 4f 40 97 83 11 c0
       1.433782 0.5968696 3.244657 -2.2736566
000010 fe 72 d8 3f 90 e8 a2 40 34 6a 84 bf 4e 28 67 40
       1.6910093 5.090889 -1.0344911 3.611835
000020 4e e7 ee bd c3 f5 13 3f 04 16 d1 3e 0d de 81 bf
       -0.116652116 0.5779688 0.4083711 -1.014589
000030 f3 cf 9b 3e ef 18 a0 3f 08 9b 10 bf be 44 02 3f
       0.3043209 1.2507609 -0.5648656 0.5088614
000040 70 99 bd 3f c1 fa 70 40 69 fc 1f c0 15 5e 73 40
       1.481245 3.7653048 -2.499781 3.8026173
000050 b3 69 96 40 bb 4a 9f bf e8 b1 0a be 1c 76 16 c0
       4.7004027 -1.2444681 -0.13544428 -2.3509588
000060 8c ad 2a be 5f 8e a3 3f 04 f1 c5 be 14 28 27 3c
       -0.16667765 1.2777823 -0.38660443 0.010202426
000070 a1 ca ef 3f 77 d1 0d bf 3f ae c1 be 74 12 e2 be
       1.8733712 -0.55397743 -0.37828252 -0.44154704
000080 b3 f2 c5 3f 1b 1c 80 bf 90 99 43 40 a5 2a c5 3f
       1.5464691 -1.0008577 3.0562477 1.5403639
000090 65 73 96 c0 2b 2f 89 bf 08 c5 8b c0 52 d5 fd bf
       -4.7015862 -1.071752 -4.3678017 -1.9830725
0000a0 61 19 06 be b4 f8 12 3f a5 40 39 3f 3c ac 22 bf
       -0.13095619 0.5741074 0.72364265 -0.6354406
0000b0 ef 89 9a bf e3 ee c8 be 93 94 92 bf 82 59 1a bf
       -1.2073344 -0.39244756 -1.1451591 -0.6029283
0000c0 6a 0d b5 bd 5d 9e c6 40 b2 86 0f bf d8 9e 70 c0
       -0.08840449 6.2068315 -0.56064904 -3.759695
0000d0 97 d7 8d be cc 38 ee 3f d8 3f 8a c0 3a 87 15 c0
       -0.27703544 1.8611083 -4.3202934 -2.3363786
0000e0 07 f7 c6 be 79 4c c6 3f f9 37 3b 3e 43 f3 c6 bf
       -0.38860342 1.5492088 0.1828307 -1.5542988
0000f0 2c 1a 80 bd 9e 66 19 3f df 1e b3 bf b1 bc eb be
       -0.06254992 0.59922206 -1.3993796 -0.46042398
000100 4e 4e 8f 3f 1f 22 10 c0 23 d6 ba bf d1 a0 a6 c0
       1.1195772 -2.2520826 -1.4596599 -5.207131
000110 6c d0 2c 3e 01 10 a0 3f 5f 67 ae 40 67 d8 a3 c0
       0.16876382 1.2504884 5.4501185 -5.1201663
000120 7e 84 a8 bd e2 19 b1 3e b2 7b 10 be d3 b9 82 bf
       -0.08228396 0.3459006 -0.14109686 -1.0212959
000130 93 88 71 3e 8a a6 ef 3d c8 48 0b 3f 91 6a c8 bf
       0.23587255 0.11701687 0.5440793 -1.5657521
000140 b7 7c 58 3f b3 a2 96 bf 65 80 18 c0 c8 5e 6b c0
       0.845653 -1.1768402 -2.3828366 -3.67766
000150 90 95 34 40 4f f2 ce c0 3d f5 b3 bf 3b 42 9d 40
       2.8216286 -6.4670787 -1.4059216 4.914335
000160 12 2e e9 be 19 0e c4 3f 28 4d c3 be 66 e7 02 c0
       -0.4554296 1.5316802 -0.38144803 -2.0453734
000170 8b 0c 91 3f ed 13 71 bf fc 44 a1 bf 91 07 3d 3e
       1.1331953 -0.9417103 -1.2599177 0.18459918
000180 01 cf 7d bd cd 6e d8 c0 5d 8f c5 c0 ea e7 d7 3f
       -0.061964992 -6.7635255 -6.1737504 1.686765
000190 b0 6b 4c 40 dd 30 a7 40 50 74 c7 c0 ec dc f3 be
       3.1940727 5.2247148 -6.2329483 -0.47629488
0001a0 f5 f0 d5 3e 9c b5 54 40 d6 49 c3 c0 b8 cd 30 3f
       0.41785398 3.3235846 -6.102763 0.690639
0001b0 ac f0 be c0 4e 05 00 40 fd b6 f0 3f 10 af 82 40
       -5.966879 2.0003238 1.8805844 4.08387

decoder.linear.0.bias f4 [14]
000000 41 1b b9 c0 82 76 9e bf 5f 2c 4a c0 1a fe 8b bf
       -5.784577 -1.2379916 -3.1589582 -1.0936921
000010 41 31 63 40 f3 16 3f 3f f9 e1 ef 3f 44 33 19 3e
       3.5498812 0.7464439 1.8740836 0.14960963
000020 99 3f 57 40 94 83 7d 3e cf d5 5b 40 8f 17 14 3f
       3.3632567 0.24757224 3.4349248 0.5784845
000030 49 90 9b 40 1a 96 86 bf
       4.861363 -1.0514557
